Homework 1/model/best_weights.pt (torch, 146277 bytes, 5 tensors)

lin1.weight f4 [128, 150]
000000 e6 25 3a bd b9 0d 60 3d 4b 63 4a bc e5 6f c1 bb
       -0.0454463 0.054700587 -0.012352775 -0.0059032314
000010 41 36 3c bd b1 da 20 bd 51 dc 26 3d 74 c1 35 bd
       -0.045950178 -0.03927106 0.040737454 -0.044373944
000020 d2 78 b1 bd c4 0e 07 bd 94 39 8f 3d 0e 22 b3 bc
       -0.08665623 -0.032973066 0.06993404 -0.021866824
000030 18 75 f0 3d 40 18 4f bc 6a e3 9d 3c d5 2e b6 3d
       0.11741084 -0.012640059 0.019273479 0.08895651
000040 2c bf e0 3d 52 63 90 3c f5 81 06 3e f3 f8 98 3d
       0.10973963 0.017625485 0.13135512 0.07469358
000050 c5 5c 9b bd 37 81 0b be cc 6a 69 3c 84 e2 8e bb
       -0.07586054 -0.1362351 0.014246654 -0.004360499
000060 03 dc 5b bd a3 1c 71 3c 72 cd 35 3d cf 74 41 3d
       -0.053676616 0.0147163 0.04438538 0.047230538
000070 0c bf 58 bd 18 99 30 3d 5a c7 8c bd e6 19 47 bd
       -0.05291657 0.04311475 -0.06873961 -0.048608683
000080 29 d7 fd 3c a9 66 7c 3c d1 9b 9c bd cd bc 04 be
       0.030986385 0.015405335 -0.07646907 -0.12962647
000090 04 ed c1 bd ed 57 52 3b d7 0e 3d bd 41 99 8c bc
       -0.09469035 0.0032095865 -0.04615673 -0.01716292
0000a0 2b 35 a8 bd ae 19 c6 bd 98 18 06 bc 21 c4 c2 bc
       -0.08213266 -0.09672867 -0.008184575 -0.023775162
0000b0 22 02 0e be 46 13 9a 3c 9b 5f 68 bd fa eb 0a bb
       -0.13868001 0.018808018 -0.0567318 -0.0021197782
0000c0 f8 3a 92 3d a5 f3 90 bc 52 ab 0c bd ed a1 b9 bc
       0.07140154 -0.017694304 -0.03434307 -0.02266022
0000d0 5d 69 46 3c ec 19 88 3d f9 ac 1f 3d 32 b7 69 3d
       0.0121100815 0.06645569 0.03898332 0.057059474
0000e0 21 eb 0f 3c e1 29 01 3d fd bd 46 3d 62 87 a5 3c
       0.008784086 0.03153408 0.04852103 0.020206157
0000f0 7d eb a1 3d 91 eb a6 3d 55 56 1c bd 55 b4 79 3d
       0.07906244 0.081503995 -0.03816827 0.060962994
000100 2d d3 78 bc d6 3e c3 3c 9d a4 9f bd 4f f9 8c bc
       -0.015187067 0.023833673 -0.07795069 -0.017208723
000110 25 06 a3 3c a4 a6 9d 3d d5 b5 98 3d 5b 5e 1c bd
       0.01990039 0.076978 0.07456557 -0.038175922
000120 f0 1c 72 3c 59 73 d6 b9 34 37 9d 3d 24 9d b1 3c
       0.014777407 -0.000409032 0.07676545 0.021681376
000130 33 ba 86 bd 28 2b 36 bc 14 2a 0e bd 37 59 99 3d
       -0.065784834 -0.011118688 -0.034708098 0.074877195
000140 c5 ca 66 3d 03 f4 4f 3d c9 c6 00 3c 6b b2 38 3d
       0.05634572 0.050769817 0.007859894 0.045092028
000150 98 dc 5e 3d 81 86 a8 b9 ed 3a 8d bd 13 c7 f7 3b
       0.054409593 -0.0003214367 -0.06896005 0.0075615733
000160 d7 8c 75 bc d4 cb 1c bc aa 3a 58 bc 55 df 14 bd
       -0.014987192 -0.009570081 -0.01319758 -0.0363458
000170 04 b8 3c bd 21 7a 9d 3d 5b 61 a5 bd f9 60 56 bd
       -0.04607393 0.0768931 -0.0807521 -0.052338574
000180 a3 17 36 bd 8d ec 90 bd 2c 90 7e bd b4 11 a7 3b
       -0.044456135 -0.070763685 -0.06214921 0.005098546
000190 40 47 58 bc 4d b5 e4 bc c1 37 4d 3d 35 d7 aa 3c
       -0.013200581 -0.027918482 0.050102 0.020854572
0001a0 0a ff b4 3d e3 c1 0c 3d ef 6e 6f bd 8c 90 1e 3d
       0.08837707 0.034364592 -0.058455404 0.03871207
0001b0 d2 f8 9e 3c 61 ec f5 bc 55 93 99 3c 9d 39 7b 3c
       0.019405756 -0.03001994 0.018747011 0.01533356
0001c0 6d 67 fc bc 6b af f1 bb 09 a0 b5 3c ba c0 35 bd
       -0.030811036 -0.007375648 0.022171037 -0.04437325
0001d0 84 da 76 bd 89 d2 4c bc b6 38 67 bd 72 f9 1f bc
       -0.060266986 -0.012501367 -0.05645057 -0.009764062
0001e0 1f 3e 76 3c 44 10 10 3e f8 4f c8 3c 0f 40 1a bc
       0.015029459 0.14068705 0.024452195 -0.009414687
0001f0 ba c7 8e 3c d0 fd 32 3d 71 08 8a 3d cf 5d 66 bd
       0.017429221 0.043699086 0.06739891 -0.056241807
000200 da d0 b1 3d c3 ea ae bd 4b b5 c8 3c 93 fe da 3c
       0.086824134 -0.08540871 0.02450051 0.026732719
000210 a9 08 ce bc 39 21 18 bd 2b 6e d7 3c c4 36 ee 3d
       -0.025150614 -0.03714106 0.02629765 0.116315395
000220 c8 a3 45 3c 7d 90 ab bd 2a 77 a0 bc 46 86 b0 3d
       0.012062974 -0.08377168 -0.019588072 0.086193606
000230 11 66 1f bc 6d 9f df bc b8 6e 35 bd b8 04 77 bd
       -0.009728924 -0.0272977 -0.044295043 -0.060307235
000240 c8 6c 57 3d 27 37 ad bd 94 af a4 3d 47 17 0c 3c
       0.052593976 -0.08457785 0.08041301 0.008550472
000250 e3 50 d5 bd 2c bc 97 3c 03 4e 54 3d f9 6b 7f bd
       -0.104158185 0.018522345 0.05183221 -0.06235883
000260 9e 76 d4 bc 7a 9b f1 3c 7c 79 7e bc d9 e9 23 3d
       -0.025935467 0.029493082 -0.015531894 0.040017936
000270 b9 4c 4b 3d c3 c9 cf 3c 22 3b bf bc bc 2a c9 bd
       0.049633715 0.025364762 -0.023343626 -0.09822604
000280 07 c0 04 3d 76 ef b4 bd 19 7c b8 3d 42 de ed bb
       0.032409694 -0.08834736 0.09008045 -0.007259161
000290 77 c7 7f 3d 0c 8a e5 bb 45 4b 91 bb eb cf af bb
       0.062446084 -0.007004982 -0.0044340217 -0.005365362
0002a0 98 32 a7 bd 8b 52 8f 3c 3b b0 52 bc a1 0f ff 3c
       -0.08163947 0.017495414 -0.012859399 0.031135382
0002b0 06 db 82 3c b4 92 6f 3d 49 71 18 3b 79 ec ae 3c
       0.01597358 0.058489516 0.0023260883 0.021352993
0002c0 c1 cf 73 bc 98 92 23 3d 28 dc 93 3b a3 9c 58 3d
       -0.014881075 0.039934725 0.0045123287 0.052883755
0002d0 55 c6 18 bd f1 3a 45 3d c9 5c 0e 3d c1 0d b2 3c
       -0.03729852 0.048151914 0.034756456 0.021735074
0002e0 7a 74 bb bc 74 1e be bc 8d 51 17 bd 92 bd d6 bb
       -0.022882689 -0.02320788 -0.036943007 -0.0065533603
0002f0 99 20 92 bd 3d 17 13 bd 2a 53 94 bd 1d 2a 02 3c
       -0.07135124 -0.035910834 -0.07242425 0.007944611
000300 f9 8f a0 3d 3b d5 7b bd 70 9b 33 3d 28 7a f6 bc
       0.078399606 -0.06148265 0.04384941 -0.030087546
000310 64 60 89 bc 68 ed 18 bd a2 ab 9e 3d 0d 70 67 bc
       -0.016769595 -0.037335783 0.0774758 -0.014125836
000320 38 c6 40 bc 91 82 28 bd 5f e3 07 3c f5 86 88 bc
       -0.011766009 -0.041140143 0.008293956 -0.016665915
000330 89 ac 74 bd 0d 4b b4 3d 22 45 3f bd 3a 92 99 bd
       -0.059734855 0.08803377 -0.04669679 -0.07498594
000340 18 6d 92 bd 10 62 99 bc 3f f5 c9 3c a7 77 6a bd
       -0.07149714 -0.018723518 0.024653075 -0.057243016
000350 ba eb 64 ba c5 5e 25 3d 41 a8 be 3d 1d e4 90 bc
       -0.0008732636 0.040373582 0.09309436 -0.017686898
000360 d6 3e bd bc b4 81 12 bd fb 10 5c bd b9 5f a8 bd
       -0.023101252 -0.035768226 -0.05372713 -0.08221383
000370 55 cb b0 3c 7d 2d 91 3d d0 d9 74 3d 67 f2 a9 3d
       0.021581331 0.07088754 0.059778035 0.08298188
000380 21 31 34 bb 65 dc e8 3c f9 d6 81 bd de 08 31 3c
       -0.0027495103 0.028425405 -0.06339831 0.010805337
000390 1b 35 97 3d ec 09 8a bd 54 98 42 3d e6 3d 96 3c
       0.07383176 -0.06740174 0.047508553 0.018340062
0003a0 28 1b 73 3d 4a 19 9f bd 02 1f 47 3d 8e 46 b0 bc
       0.05935207 -0.077684954 0.048613556 -0.021518018
0003b0 67 4f 2d 3d fd a1 3c 3d f4 1e 4b 3d 98 02 5a bd
       0.042312052 0.04605292 0.049590066 -0.05322513
0003c0 c4 d9 b0 3b 32 0d 09 3d 7c 1a c4 3d cb 3f 14 3c
       0.0053970534 0.03345985 0.09575364 0.009048413
0003d0 ef ce 09 bd 61 aa 9b 3d c8 4a 58 bb eb a5 a8 bd
       -0.033644613 0.076008566 -0.0033003557 -0.08234771
0003e0 4a 28 fa bc 31 2f 37 3d 5b 55 b9 bd 6e 54 19 bd
       -0.03053679 0.04472274 -0.090494834 -0.037434034
0003f0 82 39 b6 3c f0 10 95 3d 83 0d 92 3d cd d8 d3 3d
       0.022244219 0.07278621 0.071314834 0.10344086

lin1.bias f4 [128]
000000 3a f5 89 3c 00 c2 9c 3d c7 20 81 3d 37 5e 23 bd
       0.016840566 0.0765419 0.0630508 -0.039884772
000010 82 8a 8f bd 0d d5 97 bd a5 45 a1 3d 0d d7 9a 3c
       -0.0700884 -0.07413683 0.07874612 0.018901372
000020 ac a5 0d 3d 01 ce d9 bc 72 fd 8d bd 8a 6c de bc
       0.034581825 -0.026587488 -0.069331065 -0.027151365
000030 93 57 63 bc fb fb 2f 3c be 56 c5 3c ec 15 cd 3c
       -0.01387586 0.010741229 0.024089213 0.025034867
000040 56 de 84 3d cc 42 56 3d 12 07 89 bd e4 c4 a5 bd
       0.0648772 0.052309796 -0.06690802 -0.080941945
000050 1c 22 74 bd 38 1e 82 3d dd 71 ca 3c ff 2f 90 bd
       -0.05960284 0.0635342 0.024712497 -0.070404045
000060 a6 ab a7 bb 32 85 9f 3d 74 3c 02 bd 16 a0 ee 3c
       -0.0051168976 0.07789077 -0.031795934 0.02912907
000070 72 1a 82 3d c6 19 4d bd 7b 37 43 bd af 12 ce 3b
       0.063527 -0.050073408 -0.047660332 0.0062888484
000080 54 97 97 3d e2 a6 a3 bd 49 0a a5 bd e6 23 6d 3d
       0.074019104 -0.07990815 -0.08058602 0.057895564
000090 14 fc 95 3d 58 33 1e bc 5e f2 24 bd 94 15 93 3d
       0.07323471 -0.009655796 -0.0402702 0.0718185
0000a0 07 1f 41 3d be ba 3d bd ea 07 29 bd 98 a8 4c bd
       0.04714873 -0.04632067 -0.041267313 -0.04996547
0000b0 0f cf 16 bd 6e 83 c0 3c 89 be a7 bc e8 11 d5 3c
       -0.03681856 0.02350017 -0.020476596 0.026009515
0000c0 7c a2 6c 3c fd 28 8d 3d d4 d9 86 bd e7 3d a9 3d
       0.014443036 0.068925835 -0.06584516 0.0826376
0000d0 9d 84 3c 3d e3 0e 3f bc 85 e6 44 bd a3 b0 8c bc
       0.046024907 -0.011661264 -0.048071403 -0.01717407
0000e0 89 f0 9e 3b 42 61 06 bd e2 b1 44 3d 35 bc 75 3d
       0.0048504514 -0.032807596 0.048021205 0.05999394
0000f0 bd 66 20 3d 85 7b 9f 3d 04 6a 80 3c 7d 4f 3f bd
       0.03916048 0.07787231 0.015675552 -0.046706665
000100 f8 71 06 bd c5 3f 63 bd 15 8b 93 3d 37 4a 4b bc
       -0.032823533 -0.055480737 0.07204262 -0.012407831
000110 96 70 a7 3c eb 2c 01 bd 66 95 01 bd 6d 72 8c 3d
       0.020439427 -0.031536978 -0.031636618 0.068577625
000120 19 38 5a bd 01 72 81 bd 09 c5 fa bc 73 04 8c 3d
       -0.053276155 -0.06320573 -0.030611532 0.06836786
000130 5e 45 81 3d 2f 5a 1f bd 44 3a 28 3d 36 6b 32 bd
       0.06312059 -0.038904365 0.04107119 -0.043559276
000140 ca ab 3c bc 51 3d b1 bc 66 7e 7a 3d 11 e1 a3 3c
       -0.011515567 -0.021635683 0.0611557 0.020004781
000150 1d 88 93 3d 14 48 81 3c 9b 0a a3 3d a6 48 3a bc
       0.07203696 0.01578144 0.07961007 -0.01136986
000160 4e fc 88 bd 1f 22 32 bd eb 94 b6 3c b7 d3 7a 3d
       -0.06688748 -0.04348957 0.022287806 0.061237063
000170 59 8f 6b bd 36 fa 5b bd 1d ff 35 3d 2c 40 47 3d
       -0.057509754 -0.053705417 0.044432748 0.048645183
000180 26 17 be 3c 76 54 05 3d 7f 95 ef ba 8a d4 0e 3d
       0.023204397 0.03255125 -0.0018278806 0.03487066
000190 13 02 f6 bc e7 04 34 bd ee 70 5b 3d 6a 28 a0 3c
       -0.030030286 -0.043949988 0.053574495 0.01955052
0001a0 a4 c8 7a 3d 42 da 0e bc ae e4 5a bc ae 58 82 bd
       0.061226502 -0.008719029 -0.013360186 -0.063645706
0001b0 1e 37 99 bc e8 f9 8e 3d d6 13 c1 bc b7 e6 19 bd
       -0.01870304 0.069812596 -0.023569029 -0.037573542
0001c0 1c 17 40 bd 17 94 dc bc 8b 6e 5a 3d 9f d7 2f 3d
       -0.04689704 -0.026926083 0.05332808 0.04293024
0001d0 16 d8 c1 3c 99 02 81 3d 8a d6 88 3d ae be 17 3b
       0.023662608 0.062993236 0.06681545 0.0023154425
0001e0 8a a2 7d bd 7d 78 da 3c 8c 54 71 bd 1d 9d 9f 3c
       -0.061922587 0.026668781 -0.05891852 0.019484097
0001f0 29 5a 4a bd 25 fd dd bb bd 3a 94 3c f6 a1 e7 3c
       -0.04940239 -0.006774562 0.018094415 0.028275471

lin3.weight f4 [128, 128]
000000 0f f5 61 3d 5d d7 1a bd 47 fb e5 bc 66 2a a2 bc
       0.055165347 -0.037803043 -0.02807392 -0.019795608
000010 0b 81 12 3e 14 38 8e 3b ed 54 1a bd 4d c3 be bd
       0.14307038 0.004340181 -0.037678648 -0.093145944
000020 05 3c 0b bd b7 2d 91 3d b4 e6 46 3c 01 61 b7 bb
       -0.033992786 0.070887975 0.012139965 -0.0055962806
000030 16 1f 0b 3d 03 f1 93 bd 8f 28 05 3d 01 74 bd 3d
       0.033965193 -0.07223704 0.032509383 0.092506416
000040 c9 43 cc 3d c1 19 c1 3d e2 b5 cf 3c 89 ee 22 3a
       0.099738665 0.0942874 0.025355283 0.0006215354
000050 09 8f e7 bc bd 94 94 3c 75 61 1d 3d 19 5c 00 be
       -0.028266447 0.01813733 0.03842302 -0.12535132
000060 8f d3 b5 3d d3 2c 26 3e 50 4c 7b 3d bd 64 a9 3b
       0.08878242 0.16228037 0.061352074 0.0051694796
000070 c2 50 1b 3e da 4c 00 3c 0a ef 8a bd 3b 36 43 3a
       0.15167525 0.007830823 -0.06783874 0.00074467406
000080 64 68 0f bd 3a f1 a3 3d 39 39 ad bd 07 7b ac 3d
       -0.035011664 0.08004995 -0.0845818 0.08421903
000090 6b fb c9 bd d6 8b 11 be bd 5d 8b bd ee 68 52 3d
       -0.09862407 -0.142135 -0.068049885 0.0513696
0000a0 df 9c b9 3d 46 96 85 3d 02 84 91 3d 2c f4 72 bd
       0.09063124 0.06522803 0.071052566 -0.05931489
0000b0 3d e8 53 3e 7d 4f cd bd 77 ac 25 3e 86 2d 89 3d
       0.2069406 -0.10024927 0.16179071 0.06698136
0000c0 2c b6 98 bd f7 e1 9a 3d ce 34 12 be af c9 8a 3d
       -0.074566215 0.075626306 -0.14277956 0.06776749
0000d0 1f d4 29 3e eb 90 11 3e c3 fd b9 bd c7 3f 50 3d
       0.16584824 0.14215438 -0.09081604 0.050842073
0000e0 fb 97 1c 3d b5 b8 ff 3c 69 9d 0c 3d e9 fd c2 bd
       0.038230877 0.031216005 0.034329806 -0.09521086
0000f0 e3 8b 8c 3d 9c 2c 23 3c 69 3a 5b 3d f3 c7 99 bd
       0.06862619 0.009959366 0.0535225 -0.075088404
000100 85 81 a0 bd 10 55 27 be 99 9d 91 3d bb 8b 50 bd
       -0.07837204 -0.16341043 0.071101375 -0.050914507
000110 31 a0 26 bd e3 30 a0 bd cc 70 89 3d 46 3b a3 3d
       -0.040680114 -0.078218244 0.067109674 0.0797029
000120 80 8f 6e 3d e2 ba 8d 3d 6b 73 35 3d 51 0a 92 bd
       0.05824232 0.06920411 0.044299524 -0.07130874
000130 69 15 23 3d c7 ee 34 3d 79 24 16 bb 65 64 a7 3d
       0.03981534 0.04417303 -0.0022909923 0.081734456
000140 69 31 04 bd 7d 56 b2 bd 24 84 92 bd 11 3f db 3c
       -0.032273684 -0.087079026 -0.0715411 0.02676347
000150 6d a3 f5 bc 11 15 92 3d 10 36 69 bd 13 60 af 3d
       -0.029985154 0.07132924 -0.056936324 0.085632466
000160 07 16 87 bc 8d 77 cb 3d 66 d3 42 bd dd 0f 8b 3d
       -0.016489996 0.09934912 -0.047564887 0.06790135
000170 83 b8 33 bc 1d ed cb 3d 28 c2 4b bc 5a 93 c4 bc
       -0.010969284 0.09957335 -0.012436427 -0.023996044
000180 42 8a 1d 3e 47 12 e3 3c 62 0b 9e bb 6d 34 81 3c
       0.15384772 0.027718676 -0.0048231343 0.015772069
000190 0b 55 4e 3c 0a ba 27 3d 3f 93 a7 3d 3f 8f 07 bd
       0.012593518 0.040948905 0.08182382 -0.033095594
0001a0 eb 1a f6 3c 1f 24 1b 3e 95 6b 70 bd 45 da 23 be
       0.030042132 0.15150498 -0.05869635 -0.16001232
0001b0 03 fe e6 3c a2 5c cf bd 0a 71 07 bd 1e 43 82 3d
       0.028197294 -0.1012509 -0.033066787 0.06360458
0001c0 c0 69 c5 3d 61 2b cc bd db 9d 00 3e c5 c0 63 bd
       0.09639311 -0.09969211 0.12560217 -0.05560376
0001d0 5f 8d 87 3b b4 63 f0 3c db 36 82 3c a1 6b 4a 3d
       0.004136726 0.029344417 0.015895298 0.04941905
0001e0 15 e3 bc bd 39 e8 c1 3d a1 b0 d6 3c 1d a1 56 bc
       -0.09223 0.09468121 0.02620727 -0.013099936
0001f0 cd 25 13 3e f8 fd 11 3d 27 15 c4 3d 7d 69 69 bd
       0.14369889 0.035642594 0.09574347 -0.056985367
000200 b2 cd cc bd 21 a3 b2 3d 63 85 98 3d 60 04 de 3d
       -0.10000171 0.087225206 0.074473165 0.10840678
000210 94 82 0e bd 98 ef 9c 3d 9c 08 da 3d f4 e9 8b 3c
       -0.034792498 0.076628864 0.10646173 0.017079331
000220 12 f1 84 bc c4 e4 98 3d cc fb 11 bd 60 18 5c bd
       -0.016228233 0.074655086 -0.035640523 -0.053734183
000230 07 e6 b6 3d 1b 80 f6 3d 7e e9 ad 3d 97 8f cc bc
       0.08930593 0.12036153 0.08491801 -0.024970813
000240 e0 32 78 bb af 83 a6 bd 8d 1d ce 3d 85 ac d0 3d
       -0.003787212 -0.081305854 0.1006423 0.101891555
000250 90 82 4b 3a 58 1b 84 3d de fd e2 3b 48 d0 bd 3d
       0.0007763291 0.06450528 0.006927236 0.09268242
000260 18 54 a4 bd 06 78 3f bd 37 84 1a be 76 bd fe 3d
       -0.08023852 -0.046745323 -0.15089498 0.124384806
000270 2b b8 5c be 96 ab 2f bc f6 05 2e 3e c9 e6 6a bd
       -0.2155463 -0.010722062 0.16994461 -0.057349
000280 ef a6 5e 3d e3 e6 11 bc 0f d6 28 3e 7b a0 b9 3d
       0.05435842 -0.008905145 0.16487907 0.09063812
000290 fd 43 ae 3d b7 1a 9b 3c f5 d8 ff 3d 1c e1 68 bd
       0.085090615 0.018933637 0.12492553 -0.056855306
0002a0 a2 8e 89 bd 23 6a a8 bb 63 27 fd ba d0 28 20 38
       -0.06716658 -0.0051396056 -0.0019314106 3.8184982e-05
0002b0 41 70 8d bd 15 b6 0c 3e ca fe 08 be 47 51 12 be
       -0.06906176 0.13741334 -0.13378444 -0.14288817
0002c0 82 0c fa 3c 60 f0 06 bd 30 e9 37 3d 81 ee 0a be
       0.030523542 -0.032944083 0.04490012 -0.13567545
0002d0 d5 a3 1f bd d4 4a 6a bd 5a 45 87 3d 58 92 c9 bd
       -0.0389746 -0.057200268 0.06605025 -0.09842366
0002e0 63 8d ff bc 57 93 19 bc a8 5f b0 bd 1b 1b 15 3e
       -0.031195348 -0.009373507 -0.08611995 0.14561121
0002f0 12 9a 1d bd f9 f1 04 bd b0 8d 24 be d0 1b 6f 3d
       -0.03847701 -0.032457326 -0.16069674 0.058376133
000300 77 2a c7 3d 55 68 21 3d 0e 3f a5 3d f5 35 17 bd
       0.097248964 0.03940614 0.08068667 -0.03691669
000310 16 59 87 3d 9a ed 18 3e 88 7a 00 3c 26 f6 bb 3c
       0.06608789 0.14934388 0.007841714 0.022944521
000320 40 c2 58 bd 7e 06 67 be b5 78 a1 3d af 88 92 3a
       -0.052919626 -0.2256107 0.07884351 0.0011179651
000330 e1 20 a4 bd 58 b4 b7 3d e0 ef f0 3d 66 57 0e be
       -0.08014084 0.08969945 0.117645025 -0.13900527
000340 66 d4 04 3e 27 b2 58 3c 38 12 91 bc 72 4a 53 3d
       0.12971649 0.013226069 -0.017708883 0.05158467
000350 93 5a be 3d 10 61 a6 bc 13 4e 51 bd fd f3 12 be
       0.092946194 -0.020309955 -0.051099848 -0.14350887
000360 5b ff 37 3e 65 92 96 bd 5a 32 35 3c 29 96 c4 3d
       0.17968504 -0.07352141 0.011059368 0.09598953
000370 c1 24 d3 3c 1a e8 4e be bb 21 2d 3d 18 40 97 bc
       0.025774362 -0.20205727 0.042268496 -0.01846318
000380 5e 5f 07 be 26 0e 78 3d da 5d 0f 3c 17 a6 fe bc
       -0.13219973 0.060560368 0.008750403 -0.031085057
000390 a9 44 29 3e 72 72 90 3d 5c f8 13 be 77 69 cb 3d
       0.16530098 0.07053079 -0.1445021 0.09932225
0003a0 06 0e 6d 3c 49 c9 ac bd 4b e2 14 3e db bd 43 3e
       0.0144686755 -0.084368296 0.14539449 0.19115393
0003b0 30 a1 29 bd d4 80 1d 3e 9b 9b 06 3e bc d0 92 bd
       -0.041413486 0.15381175 0.13145296 -0.07168719
0003c0 a1 11 22 bd 52 cb 46 3d c9 d1 a7 bd 37 c0 eb 3d
       -0.039567593 0.048533745 -0.0819431 0.115112714
0003d0 a7 1b 39 bc 67 4b 27 bd 4c 0a 5f bc 39 8f 9b bd
       -0.011298097 -0.040843394 -0.013613295 -0.07595677
0003e0 7b 64 aa 3d ba 01 0b be ec d6 1f 3e ef d5 63 3d
       0.083199464 -0.13574877 0.1560933 0.055623945
0003f0 81 b4 e6 bd 85 16 95 bd 50 09 12 bd e7 93 27 bb
       -0.11264897 -0.07279686 -0.035653412 -0.0025570334

lin3.bias f4 [128]
000000 c5 fe 9e bd bf c0 37 bd b9 07 b4 bc 45 d1 9d bc
       -0.07763437 -0.04486155 -0.021976339 -0.019264827
000010 ac 7f e5 bc 78 d3 8b 3d 75 02 94 3c fe 54 8f 3d
       -0.02801498 0.06827444 0.018067578 0.06998633
000020 55 62 c4 ba a0 ef d3 3c 02 3e 51 bd 03 cd ad 3c
       -0.0014982919 0.025871098 -0.051084526 0.021215921
000030 e9 dd b8 3d af d8 fe bb b1 c1 d7 3c 96 de c5 3d
       0.09026701 -0.0077772955 0.026337476 0.096615955
000040 b0 3b 7f bd 36 f6 6e 3c 1b 2b 8c 3d 0d 46 ad 3d
       -0.06231278 0.014585068 0.06844159 0.08460627
000050 46 ff aa bd cb e0 10 3d b8 2d 0d bd ed a1 ab 3d
       -0.08349471 0.03537063 -0.03446743 0.08380494
000060 34 58 19 bc 7c ff 8d 3d f3 0b bb bd b5 6f 52 3d
       -0.009359408 0.069334954 -0.091331385 0.051376063
000070 87 33 cd bc 49 68 55 bd 64 dc 8e 3d 24 7e cc 3c
       -0.025048984 -0.052101407 0.0697563 0.024962492
000080 c9 a3 8d 3d 71 9f cb 3c db 3b 8a bd 10 19 eb 3c
       0.06916005 0.024856301 -0.06749698 0.028698474
000090 4f 08 29 bd d3 55 b2 3d f4 73 df 3b f2 39 1c 3b
       -0.04126769 0.08707776 0.0068192426 0.002383825
0000a0 33 ef 45 bc 95 05 f0 bc b3 5e a9 3d 23 e4 b4 3d
       -0.012080955 -0.029299537 0.082700156 0.08832576
0000b0 34 2b 72 3d 87 76 86 bd 93 1f 00 bd 77 b7 92 3c
       0.059123233 -0.06565576 -0.03128011 0.017909748
0000c0 61 08 84 bd 9a 6e 56 3d 54 fe 68 bc c6 30 bd 3c
       -0.06446911 0.05235157 -0.014220793 0.023094546
0000d0 0e 36 8f bd 3f 95 6b 3d 95 81 b2 3c ed 7d d3 3c
       -0.06992732 0.05751538 0.021790305 0.025816882
0000e0 51 53 55 3d 4d a0 b4 bc 36 00 2f bd b8 75 74 3c
       0.05208141 -0.022049094 -0.04272481 0.014920644
0000f0 af bc e6 3c e9 56 d7 bc 42 d3 89 bd 55 8a 3d bd
       0.028166143 -0.02628656 -0.06729747 -0.0462745
000100 2e 63 00 3d 27 b0 9b 3d 8d a6 e1 3d f8 ca a4 bd
       0.031344585 0.07601958 0.11018095 -0.08046526
000110 ac 19 73 bd 84 eb 85 3d c7 0c ea 3b 03 ce b4 3c
       -0.059350654 0.06539062 0.0071426365 0.02207089
000120 51 a9 40 bd 3a 88 79 3d 70 74 43 bd 96 64 21 bd
       -0.047036473 0.06092093 -0.047718465 -0.039402567
000130 bd b8 2a 3d 8f a1 86 3d 51 64 43 3d 6e f6 33 bc
       0.041680086 0.065737836 0.04770309 -0.010984046
000140 67 88 86 bc 82 50 5f bd b1 aa c2 3d 79 26 19 3d
       -0.016422464 -0.054520138 0.09505213 0.037390206
000150 ed 68 b4 3d 7d f2 82 bd 45 cd 9d 3d 0d 50 15 3d
       0.088090755 -0.06393907 0.07705168 0.036453295
000160 96 4c b7 3d bf 23 7b 3c 04 7b 87 3d 46 d2 19 3d
       0.089501545 0.015328347 0.0661526 0.037554048
000170 85 00 93 3c ca 86 0f bd 31 71 95 3d 84 c7 b5 3d
       0.017944584 -0.035040654 0.0729698 0.08875945
000180 0d 35 65 bd 42 ef d9 bb 0e 24 29 bc 7e 8a 78 3d
       -0.055958796 -0.006650836 -0.0103235375 0.06067895
000190 c9 c7 5e bd 65 9e dd 3c ef 95 54 3c 12 e0 ce 3a
       -0.05438975 0.027053067 0.0129752 0.0015783331
0001a0 57 28 8a bd 9e b4 84 3d 55 12 8a bc d5 26 1c 3d
       -0.067459755 0.064797625 -0.016854445 0.03812297
0001b0 12 e5 86 3c 32 0a 17 bd 5a bd 2d 3d 8f 24 ac 3d
       0.016466651 -0.036874957 0.042416908 0.084054105
0001c0 7f dc ea 3c fb 82 87 3d c0 3a b4 3c 0e 29 94 bd
       0.028669594 0.066167794 0.02200067 -0.07234393
0001d0 68 13 96 3d c7 97 33 bd db fa 04 bd 00 2b fd bc
       0.0732792 -0.043845918 -0.032465797 -0.030904293
0001e0 32 29 a9 3d 2e fe 34 3d 7e ba 01 bc 30 23 63 bc
       0.082598105 0.044187717 -0.007917998 -0.01386337
0001f0 dd 60 a7 3d f6 00 84 bd 6b 09 6f 3d 85 30 7d bd
       0.08172772 -0.06445496 0.05835859 -0.06181385

lin2.weight f4 [1, 128]
000000 12 e9 51 be 7f 83 f9 3d fd f3 3d be af 59 44 3e
       -0.20499066 0.12183284 -0.18550105 0.19174837
000010 25 93 c2 3d 8e b0 45 be 3f 2f 4b be ac 9e 05 3e
       0.09500722 -0.19305632 -0.19842242 0.1304881
000020 db 02 54 be 5c 6a 56 be 96 ee 22 3e 53 de ed 3d
       -0.20704214 -0.2093901 0.15911326 0.116146706
000030 53 41 2d be ce 13 2c be ac 1b 51 be 88 fa 7a be
       -0.1691945 -0.1680443 -0.20420712 -0.24509633
000040 07 48 51 be 37 b6 49 be 23 9f 25 be 66 18 59 3e
       -0.20437633 -0.19698416 -0.16173987 0.21200714
000050 be 82 51 be 90 e1 e7 3d 12 0b 63 be 83 d8 14 be
       -0.2046003 0.113223195 -0.22172192 -0.14535718
000060 4f 58 33 3e 35 e6 fb bd dd 02 14 bd 03 e8 22 3e
       0.17514156 -0.12299768 -0.036135543 0.15908818
000070 44 c8 46 3e 97 d1 1a 3e c1 f7 06 3e e6 0c 05 3e
       0.19412333 0.15119015 0.13180448 0.12993202
000080 81 f4 78 be fc 32 32 be 02 9c f5 bd 9b 59 4b be
       -0.24312021 -0.17402261 -0.11992647 -0.198584
000090 50 55 21 be 8a 13 00 3e 5f e1 49 be e4 f3 19 3d
       -0.157552 0.12507454 -0.19714878 0.037586108
0000a0 35 b0 e3 bd ef ef 2a be 1a 61 36 3e 93 a7 00 be
       -0.11117593 -0.1669309 0.17810479 -0.12563924
0000b0 48 af 3f 3e dc 76 38 3e 0f f3 43 be 2e e8 4b be
       0.18719208 0.18014091 -0.19135688 -0.19912788
0000c0 04 29 13 3e d7 53 ff 3d 36 e9 26 be 51 c3 75 be
       0.14371115 0.12467163 -0.162999 -0.24000289
0000d0 91 bc 02 be c7 ff 28 be 11 28 5b be 1e a9 02 3e
       -0.12767245 -0.16503821 -0.21402003 0.12759826
0000e0 bb 4b 14 3e f5 44 15 be df 7c 11 3e 56 f7 39 be
       0.14482014 -0.14577086 0.14207791 -0.18160757
0000f0 cc 0e 19 be 9c bc 36 be 79 d5 2e be 3e cf 54 be
       -0.14947051 -0.17845386 -0.17073621 -0.20782182
000100 01 75 08 3e 8f e8 3c be f2 25 20 3e 09 79 b3 3d
       0.13325883 -0.18448089 0.15639475 0.0876332
000110 ee a1 4d 3e 44 71 a5 3d b7 fa 1e 3e e4 a9 21 3e
       0.20081303 0.08078244 0.15525328 0.15787464
000120 8e c4 14 3e b2 9c 31 3e 0b 91 90 be 75 f5 1a 3e
       0.14528105 0.17344931 -0.2823566 0.15132697
000130 52 d7 0d 3e c5 61 00 3e 6a 02 17 3e fb f3 0f 3e
       0.1385167 0.12537296 0.14747015 0.14057915
000140 af 55 e9 3d d0 53 69 be 90 fe 46 3e 4e 9c 04 3e
       0.11393296 -0.22785878 0.19433045 0.1295025
000150 ab 34 35 be 37 96 28 be f9 c3 3b be 3e 1b e6 3d
       -0.17695872 -0.16463552 -0.18336476 0.11235665
000160 79 0e 2f be 4b a6 02 3e 22 5b 41 be 8e 66 25 be
       -0.17095365 0.12758748 -0.1888242 -0.16152403
000170 91 77 0a be 47 fc 3f be 5b e7 3f be 13 07 1c be
       -0.13522173 -0.1874858 -0.18740599 -0.15237074
000180 4a 60 5b be 32 a8 46 3e 42 24 ec 3d 22 79 28 be
       -0.2142345 0.19400099 0.11530353 -0.16452459
000190 c7 92 fd bd 28 58 18 be 24 81 84 be 95 58 d6 3d
       -0.12381511 -0.14877379 -0.25879776 0.104661144
0001a0 a6 51 63 3e 3b 58 39 3e 84 ba ed 3d fa d3 a7 3d
       0.22199115 0.18100064 0.11607841 0.08194728
0001b0 bf c9 5c 3e 27 43 64 be db 15 25 3e 04 84 22 3e
       0.21561335 -0.22291242 0.16121618 0.15870672
0001c0 cf ec f5 bd 00 4f 1b be 71 bb 0c 3e 0e a8 3c be
       -0.12008058 -0.15166855 0.13743378 -0.18423483
0001d0 52 fa 0c be 19 a6 05 be 0e 31 4b be 7b bc 05 be
       -0.13767365 -0.13051642 -0.19842932 -0.13060181
0001e0 86 91 15 be 43 a1 46 be 8b 33 6e 3e 79 dd 4f be
       -0.14606294 -0.19397454 0.2326185 -0.20299329
0001f0 fd ca 16 be d4 00 56 be 7b 9f ba 3d 4a e2 49 be
       -0.14725871 -0.20898753 0.0911245 -0.19715229
